…
INFO | 2025-11-26 18:23:17 | NVIDIA GeForce RTX 3090 	 Memory: 23.56GB
INFO | 2025-11-26 18:23:17 | NVIDIA GeForce RTX 3090 	 Memory: 23.56GB
INFO | 2025-11-26 18:23:17 | NVIDIA GeForce RTX 3090 	 Memory: 23.56GB
INFO | 2025-11-26 18:23:17 | NVIDIA GeForce RTX 3090 	 Memory: 23.56GB
INFO | 2025-11-26 18:23:17 | NVIDIA GeForce RTX 3090 	 Memory: 23.56GB
INFO | 2025-11-26 18:23:17 | NVIDIA GeForce RTX 3090 	 Memory: 23.56GB
INFO | 2025-11-26 18:23:17 | Found 40 total number of CPUs.
INFO | 2025-11-26 18:23:20 | Number of parameters in the model: 169625681
INFO | 2025-11-26 18:23:21 | DistributedDataParallel(
  (module): Transformer(
    (vocab_embed): Embedding(50257, 768)
    (time_embedding): TimestepEmbedder(
      (mlp): Sequential(
        (0): Linear(in_features=256, out_features=128, bias=True)
        (1): SiLU()
        (2): Linear(in_features=128, out_features=128, bias=True)
      )
    )
    (rotary_emb): Rotary()
    (blocks): ModuleList(
      (0-11): 12 x DDiTBlock(
        (norm1): LayerNorm()
        (qw): Linear(in_features=768, out_features=768, bias=False)
        (kw): Linear(in_features=768, out_features=768, bias=False)
        (vw): Linear(in_features=768, out_features=768, bias=False)
        (attn_out): Linear(in_features=768, out_features=768, bias=False)
        (dropout1): Dropout(p=0.1, inplace=False)
        (norm2): LayerNorm()
        (mlp): Sequential(
          (0): Linear(in_features=768, out_features=3072, bias=True)
          (1): GELU(approximate='tanh')
          (2): Linear(in_features=3072, out_features=768, bias=True)
        )
        (adaLN_modulation): Linear(in_features=128, out_features=4608, bias=True)
      )
    )
    (output_layer): DDitFinalLayer(
      (norm_final): LayerNorm()
      (linear): Linear(in_features=768, out_features=50257, bias=True)
      (adaLN_modulation): Linear(in_features=128, out_features=1536, bias=True)
    )
  )
)
INFO | 2025-11-26 18:23:21 | Optimizer: AdamW (
Parameter Group 0
    amsgrad: False
    betas: (0.9, 0.95)
    capturable: False
    decoupled_weight_decay: True
    differentiable: False
    eps: 1e-08
    foreach: None
    fused: False
    lr: 0.0003
    maximize: False
    weight_decay: 0.03
)
INFO | 2025-11-26 18:23:21 | Scaler: <torch.amp.grad_scaler.GradScaler object at 0x7f7ed0217dc0>
…
